…
I20250119 08:10:22 96 dinov2 ssl_meta_arch.py:99] OPTIONS -- IBOT -- head_hidden_dim: 2048
I20250119 08:10:22 96 dinov2 ssl_meta_arch.py:121] Student and Teacher are built: they are both vit_h network.
I20250119 08:10:23 96 dinov2 ssl_meta_arch.py:396] DISTRIBUTED FSDP -- preparing model for distributed training
I20250119 08:10:25 96 dinov2 train.py:307] Model:
SSLMetaArch(
  (dino_loss): DINOLoss()
  (koleo_loss): KoLeoLoss(
    (pdist): PairwiseDistance()
  )
  (ibot_patch_loss): iBOTPatchLoss()
  (student): ModuleDict(
    (backbone): FullyShardedDataParallel(
      (_fsdp_wrapped_module): DinoVisionTransformer(
        (patch_embed): PatchEmbed(
          (proj): Conv2d(3, 1536, kernel_size=(14, 14), stride=(14, 14))
          (norm): Identity()
        )
        (blocks): ModuleList(
          (0): FullyShardedDataParallel(
            (_fsdp_wrapped_module): BlockChunk(
              (0-23): 24 x NestedTensorBlock(
                (norm1): LayerNorm((1536,), eps=1e-06, elementwise_affine=True)
                (attn): Attention(
                  (qkv): Linear(in_features=1536, out_features=4608, bias=True)
                  (attn_drop): Dropout(p=0.0, inplace=False)
                  (proj): Linear(in_features=1536, out_features=1536, bias=True)
                  (proj_drop): Dropout(p=0.0, inplace=False)
                )
                (ls1): LayerScale()
                (drop_path1): Identity()
                (norm2): LayerNorm((1536,), eps=1e-06, elementwise_affine=True)
                (mlp): GluMlp(
                  (fc1): Linear(in_features=1536, out_features=8192, bias=True)
                  (act): SiLU()
                  (drop1): Dropout(p=0.0, inplace=False)
                  (norm): Identity()
                  (fc2): Linear(in_features=4096, out_features=1536, bias=True)
                  (drop2): Dropout(p=0.0, inplace=False)
                )
                (ls2): LayerScale()
                (drop_path2): Identity()
              )
            )
          )
        )
        (norm): LayerNorm((1536,), eps=1e-06, elementwise_affine=True)
        (head): Identity()
      )
    )
    (dino_head): FullyShardedDataParallel(
      (_fsdp_wrapped_module): DINOHead(
        (mlp): Sequential(
          (0): Linear(in_features=1536, out_features=2048, bias=True)
          (1): GELU(approximate='none')
          (2): Linear(in_features=2048, out_features=2048, bias=True)
          (3): GELU(approximate='none')
          (4): Linear(in_features=2048, out_features=384, bias=True)
        )
        (last_layer): Linear(in_features=384, out_features=131072, bias=False)
      )
    )
    (ibot_head): FullyShardedDataParallel(
      (_fsdp_wrapped_module): DINOHead(
        (mlp): Sequential(
          (0): Linear(in_features=1536, out_features=2048, bias=True)
          (1): GELU(approximate='none')
          (2): Linear(in_features=2048, out_features=2048, bias=True)
          (3): GELU(approximate='none')
          (4): Linear(in_features=2048, out_features=256, bias=True)
        )
        (last_layer): Linear(in_features=256, out_features=131072, bias=False)
      )
    )
  )
  (teacher): ModuleDict(
    (backbone): FullyShardedDataParallel(
      (_fsdp_wrapped_module): DinoVisionTransformer(
        (patch_embed): PatchEmbed(
          (proj): Conv2d(3, 1536, kernel_size=(14, 14), stride=(14, 14))
          (norm): Identity()
        )
        (blocks): ModuleList(
          (0): FullyShardedDataParallel(
            (_fsdp_wrapped_module): BlockChunk(
              (0-23): 24 x NestedTensorBlock(
                (norm1): LayerNorm((1536,), eps=1e-06, elementwise_affine=True)
                (attn): Attention(
                  (qkv): Linear(in_features=1536, out_features=4608, bias=True)
                  (attn_drop): Dropout(p=0.0, inplace=False)
                  (proj): Linear(in_features=1536, out_features=1536, bias=True)
                  (proj_drop): Dropout(p=0.0, inplace=False)
                )
                (ls1): LayerScale()
                (drop_path1): Identity()
                (norm2): LayerNorm((1536,), eps=1e-06, elementwise_affine=True)
                (mlp): GluMlp(
                  (fc1): Linear(in_features=1536, out_features=8192, bias=True)
                  (act): SiLU()
                  (drop1): Dropout(p=0.0, inplace=False)
                  (norm): Identity()
                  (fc2): Linear(in_features=4096, out_features=1536, bias=True)
                  (drop2): Dropout(p=0.0, inplace=False)
                )
                (ls2): LayerScale()
                (drop_path2): Identity()
              )
            )
          )
        )
        (norm): LayerNorm((1536,), eps=1e-06, elementwise_affine=True)
        (head): Identity()
      )
    )
    (dino_head): FullyShardedDataParallel(
      (_fsdp_wrapped_module): DINOHead(
        (mlp): Sequential(
          (0): Linear(in_features=1536, out_features=2048, bias=True)
          (1): GELU(approximate='none')
          (2): Linear(in_features=2048, out_features=2048, bias=True)
          (3): GELU(approximate='none')
          (4): Linear(in_features=2048, out_features=384, bias=True)
        )
        (last_layer): Linear(in_features=384, out_features=131072, bias=False)
      )
    )
    (ibot_head): FullyShardedDataParallel(
      (_fsdp_wrapped_module): DINOHead(
        (mlp): Sequential(
          (0): Linear(in_features=1536, out_features=2048, bias=True)
          (1): GELU(approximate='none')
          (2): Linear(in_features=2048, out_features=2048, bias=True)
          (3): GELU(approximate='none')
          (4): Linear(in_features=2048, out_features=256, bias=True)
        )
        (last_layer): Linear(in_features=256, out_features=131072, bias=False)
      )
    )
  )
)
I20250119 08:10:25 96 dinov2 param_groups.py:54] chunked fsdp
I20250119 08:10:25 96 dinov2 param_groups.py:87] cls_token: lr_multiplier: 1.0, wd_multiplier: 1.0
I20250119 08:10:25 96 dinov2 param_groups.py:87] pos_embed: lr_multiplier: 1.0, wd_multiplier: 1.0
I20250119 08:10:25 96 dinov2 param_groups.py:87] register_tokens: lr_multiplier: 1.0, wd_multiplier: 1.0
…
